models/glioma_stages.pth (torch, 33544 bytes, 8 tensors)

fc1.weight f4 [100, 9]
0	0xbea4c2d4	-0.32179892
1	0x3da317de	0.07963537
2	0x3e7fc4ac	0.24977368
3	0xbf02ef65	-0.5114654
4	0x3e161c60	0.14659262
5	0x3e825678	0.25456595
6	0x3efdb23a	0.4955004
7	0xbdf4018a	-0.11914356
8	0xbed9edae	-0.42564148
9	0xbe2c062f	-0.16799234
10	0x3ea1b114	0.31580412
11	0xbe748d47	-0.23882018
12	0xbe03d316	-0.12873492
13	0xbe3a828f	-0.18213867
14	0x3db938a4	0.090440065
15	0xbf0a59b4	-0.54043126
16	0x3d50cc21	0.050975922
17	0xbc16757c	-0.009183284
18	0xbcd02bbf	-0.025411485
19	0x3e332c55	0.1749738
20	0xbc990708	-0.01868011
21	0xbe890c4a	-0.26767188
22	0x3cbdb4ea	0.023157556
23	0x3cff42b7	0.031159742
24	0xbf35247b	-0.7075879
25	0xbebca6a4	-0.36845887
26	0xbf1dcf2b	-0.6164424
27	0x3df9a529	0.12189705
28	0x3e42b2a7	0.19013463
29	0x3eada006	0.3391115
30	0x3e9f8ced	0.31162205
31	0x3e3e8232	0.18604353
32	0xbe2d7881	-0.169405
33	0xbda7834b	-0.08179339
34	0x3e575f5b	0.21032469
35	0x3cfacea2	0.030616108
36	0x3e2d82fe	0.16944501
37	0xbe7643b8	-0.2404927
38	0xbd0f48c0	-0.03498149
39	0x3e931b0a	0.28731567
40	0xbd351656	-0.044210754
41	0xbe416f88	-0.18890202
42	0x3e284733	0.1643341
43	0xbd9be24b	-0.07611521
44	0xbc6948ab	-0.014238517
45	0xbea4384d	-0.32074204
46	0x3da38ff4	0.07986441
47	0x3e205262	0.15656427
48	0xbd448d0b	-0.04798607
49	0xbe873cc7	-0.26413557
50	0x3dfacd43	0.12246182
51	0x3db49f93	0.08819499
52	0x3e460c85	0.19340713
53	0xbe4fd0c0	-0.20294476
54	0xbd8bff0f	-0.06835758
55	0x3da6566c	0.081219524
56	0xbed6b246	-0.41932887
57	0x3dc0cc44	0.094139606
58	0xbe7f55bb	-0.24935047
59	0x3ef21a2c	0.47285593
60	0x3cad0c32	0.02112398
61	0xbeb9b3d7	-0.3627002
62	0xbcc490c8	-0.023994818
63	0x3e4b7f83	0.1987286
64	0xbe646e0e	-0.22307608
65	0xbe4809f3	-0.19535045
66	0xbe3b3446	-0.1828166
67	0x3e5c0eee	0.2149007
68	0xbe69a866	-0.22818145
69	0xbe35553e	-0.17708299
70	0xbe8b91c3	-0.27259645
71	0xbe4d450e	-0.20045874
72	0xbcfadfa2	-0.030624215
73	0x3e3279f6	0.17429337
74	0xbea06fa1	-0.31335166
75	0x3e9c9ca7	0.30588266
76	0xbe09e09b	-0.13464586
77	0x3e91352c	0.2836088
78	0x3e29aee1	0.16570617
79	0x3e978a54	0.29597723
80	0x3ea78958	0.32721972
81	0xbe92b010	-0.2864995
82	0x3db8c7d3	0.090224884
83	0xbc0cedc0	-0.008601606
84	0x3d923048	0.07138115
85	0xbec73908	-0.389107
86	0x3ea58a9e	0.3233232
87	0xbea48a6a	-0.32136852
88	0x3e63b58f	0.22237228
89	0x3bbb9f03	0.005725743
90	0x3c832ac0	0.016011596
91	0xbe3b726e	-0.1830537
92	0xbe1fa5a3	-0.15590529
93	0xbdaa2f10	-0.08309758
94	0x3e68b9b6	0.22727093
95	0x3e8e63d2	0.27810532
96	0x3e819476	0.2530858
97	0x3d8559a0	0.06511235
98	0xbe7c3636	-0.24630055
99	0x3e929e6c	0.2863649
100	0x3de3dfff	0.11126708
101	0xbe75b9d6	-0.23996672
102	0xbd37f365	-0.044909853
103	0xbe545af6	-0.20737824
104	0xbe37c57f	-0.17946433
105	0x3d13365c	0.035940513
106	0xbebe75d0	-0.3719926
107	0x3c55b14a	0.013042757
108	0x3ca4c0eb	0.020111522
109	0xbe5df4e3	-0.21675448
110	0x3dfe4b96	0.124167606
111	0xbdd869c6	-0.1056705
112	0x3e0e2a5e	0.1388335
113	0xbe288d23	-0.1646009
114	0x3d4e2f56	0.05033811
115	0xbe1543d0	-0.1457665
116	0x3ea0f673	0.31438026
117	0x3d3dfd7f	0.04638433
118	0x3d94d5e4	0.07267359
119	0x3ea7397e	0.3266105
120	0xbe1be0eb	-0.15222518
121	0xbe88942e	-0.26675552
122	0x3dc949ee	0.09828554
123	0x3e99fc88	0.3007548
124	0x3e5393e3	0.20661883
125	0xbe908be1	-0.2823172
126	0xbe2aec57	-0.16691719
127	0x3e986dc0	0.29771233
128	0x3e239383	0.1597424
129	0x3e0902f7	0.13380037
130	0xbebb231d	-0.36550227
131	0xbecb5df1	-0.3972011
132	0x3e962aa0	0.29329395
133	0x3ea31915	0.31855074
134	0xbefc6017	-0.4929206
135	0xbe65e518	-0.22450674
136	0xbea96c30	-0.33090353
137	0x3dd1a3a6	0.102362916
138	0xbe6048c3	-0.21902756
139	0x3e3f2996	0.18668208
140	0x3c3c8b2b	0.01150779
141	0x3e16a800	0.14712524
142	0x3e32293b	0.1739854
143	0x3e6c2da8	0.23064291
144	0xbef42c09	-0.47689846
145	0x3dae042f	0.08496892
146	0x3e6bcfdd	0.23028512
147	0xbcf443a4	-0.02981741
148	0xbd9e99c6	-0.07744174
149	0xbe000b0e	-0.12504217
150	0xbe516dfb	-0.2045211
151	0xbd96fe51	-0.07372726
152	0xbeb9bcd4	-0.36276877
153	0xba4362a6	-0.00074533594
154	0x3d8ef4e0	0.069803
155	0xbcefffd1	-0.029296787
156	0x3e4e3b6f	0.2013986
157	0xbe2c37de	-0.16818187
158	0x3e083329	0.13300766
159	0x3e106511	0.14101054
160	0xbeaf5806	-0.34246844
161	0x3ea21cbc	0.31662548
162	0x3dffccb7	0.12490218
163	0xbbe997c7	-0.007128689
164	0x3dc0e244	0.09418157
165	0xbe4ad40c	-0.19807452
166	0xbf26d119	-0.6516281
167	0x3e67be70	0.2263124
168	0xbecd22c3	-0.40065584
169	0x3f121c3b	0.57074326
170	0x3eb45e96	0.35228413
171	0x3ebdca0c	0.37068212
172	0x3d461ce3	0.048367392
173	0xbe3d36eb	-0.18477981
174	0xbe2e6840	-0.17031956
175	0xbe465774	-0.19369298
176	0x3e85b83c	0.26117122
177	0x3e0c9a32	0.13730696
178	0xbee19537	-0.44059154
179	0x3e3f302e	0.18670723
180	0xbc81a8a3	-0.015827483
181	0x3c1d9e95	0.009620328
182	0x3ecf3c20	0.4047556
183	0xbebf5a98	-0.37373805
184	0x3d8c5b59	0.06853361
185	0x3e676913	0.22598676
186	0x3e105b06	0.14097223
187	0x3d925225	0.07144574
188	0xbe1afc85	-0.15135391
189	0x3f40399f	0.7508792
190	0x3e9aff3f	0.30272862
191	0xbd8d35a2	-0.06894995
192	0xbd0a6c6f	-0.033794817
193	0xbe9c45c3	-0.30521974
194	0x3eb1b142	0.3470555
195	0xbf19c125	-0.6006034
196	0x3de0f758	0.10984677
197	0xbd2ec0a0	-0.04266417
198	0x3d83dda6	0.064387605
199	0x3d0cd917	0.03438672
200	0xbed501ab	-0.41602835
201	0xbcbd1121	-0.023079457
202	0xbe6cbdf6	-0.2311934
203	0xbd91cb17	-0.071188144
204	0xbe917c65	-0.28415218
205	0x3d1809a0	0.037118554
206	0x3e9a78de	0.3017034
207	0xbe3efd3d	-0.1865129
208	0x3e851e1a	0.25999528
209	0xbea9c9fc	-0.33161914
210	0xbde220f3	-0.11041441
211	0xbeec0fba	-0.46105748
212	0x3ecb8b34	0.3975464
213	0x3d2dc238	0.04242155
214	0x3e25e40b	0.16200273
215	0x3e5ea08b	0.2174093
216	0xbe9b56c6	-0.3033964
217	0xbe4b4486	-0.19850358
218	0xbe1ff540	-0.15620899
219	0x3e2ed5cb	0.17073743
220	0x3d5e2b60	0.054240584
221	0x3dc09c0b	0.09404763
222	0x3e2583a8	0.16163504
223	0xbc6453d6	-0.013936004
224	0x3e9a2403	0.301056
225	0xbeafb2ce	-0.34316105
226	0x3d10bf56	0.035338722
227	0x3e468b73	0.19389133
228	0xbe18d02e	-0.14923164
229	0x3bf2c3f0	0.0074086115
230	0xbda9cd04	-0.08291057
231	0xbd1aecc1	-0.037823442
232	0x3e8c7e69	0.27440193
233	0xbe87ae49	-0.26500157
234	0x3e8992db	0.26869854
235	0xbea66e4a	-0.3250602
236	0xbe9dd2ce	-0.30824894
237	0xbdaa3a5b	-0.08311912
238	0x3e9ab7e7	0.3021843
239	0xbe46ed56	-0.19426474
240	0xbe256c63	-0.16154628
241	0xbe9df328	-0.30849576
242	0xbdf69fc6	-0.12042193
243	0xbcc1ffd6	-0.023681562
244	0xbea49bef	-0.32150218
245	0x3db83b80	0.08995724
246	0xbd6ee960	-0.058328032
247	0xbe4cbfbe	-0.19995019
248	0x3e730978	0.23734081
249	0xbdb60ec6	-0.088895366
250	0x3c90b816	0.017665904
251	0xbe333608	-0.1750108
252	0x3c222b99	0.00989809
253	0x3d1189eb	0.03553192
254	0xbe84c5ca	-0.2593215
255	0xbe94a705	-0.29033676

fc1.bias f4 [100]
0	0xbe839f3a	-0.25707418
1	0x3e5c8ed6	0.21538863
2	0xbe1f5f22	-0.15563634
3	0x3e8d927d	0.27650824
4	0xbe8902bc	-0.267599
5	0x3c12b35e	0.008953897
6	0xbe08d6da	-0.1336321
7	0x3e5106f0	0.20412803
8	0x3eb45d1c	0.35227287
9	0x3ebdd9a3	0.37080106
10	0x3e772a2e	0.24137184
11	0xbea2c03c	-0.31787288
12	0xbe0cb583	-0.13741116
13	0x3e756878	0.23965633
14	0x3eabe917	0.3357627
15	0xbe3be9b0	-0.18350863
16	0x3e87e659	0.2654293
17	0x3daadf97	0.08343428
18	0x3edb2032	0.42798
19	0xbd3462ae	-0.04403942
20	0x3e71e76c	0.23623437
21	0xbd8de3cb	-0.06928214
22	0xbe95d3a8	-0.29263043
23	0xbcf273be	-0.029596206
24	0xbe0d1836	-0.13778767
25	0xbe67fd95	-0.22655328
26	0xbe18f59e	-0.14937446
27	0x3e8ed9b8	0.2790048
28	0xbe43fabb	-0.19138615
29	0x3c859746	0.016307484
30	0x3e1dd6fe	0.15414044
31	0xbe2946f8	-0.16530979
32	0xbe871618	-0.26384044
33	0x3dbd567b	0.092450105
34	0xbe9c3f4f	-0.3051705
35	0xbddb9918	-0.1072256
36	0xbe15b744	-0.14620692
37	0x3c93b60e	0.018031146
38	0x3e8e3acf	0.27779242
39	0xbe3ec163	-0.18628459
40	0x3eb0df60	0.34545422
41	0xbe6920fc	-0.22766489
42	0x3d60afe0	0.054855227
43	0x3d16842b	0.03674714
44	0x3e40cdf3	0.18828563
45	0xbe91454a	-0.28373176
46	0x3ca67056	0.020317238
47	0x3e1114b6	0.14168057
48	0xbddc8096	-0.10766713
49	0x3e7c70f4	0.24652463
50	0x3ebe571f	0.37175843
51	0x3e308e03	0.17241673
52	0x3e8c2a0e	0.27375835
53	0xbe5f84a4	-0.21827942
54	0x3e8d244b	0.27566752
55	0xbe343e05	-0.17601784
56	0xbe834a80	-0.25642776
57	0x3d846bc0	0.06465864
58	0xbe244473	-0.16041736
59	0x3ea5602b	0.32299933
60	0xbe8baa62	-0.2727843
61	0x3dfe54f0	0.12418544
62	0xbe04c448	-0.129655
63	0x3da61cca	0.0811096
64	0x3c51eadb	0.012812342
65	0x3e8037b6	0.25042504
66	0x3e1da3c7	0.15394507
67	0xbe85050a	-0.25980407
68	0x3e934a9b	0.28767857
69	0x3d7b2aab	0.06131999
70	0xbea7c80e	-0.32769817
71	0xbe781fde	-0.24230906
72	0xbd321ac4	-0.043482557
73	0xbe4ed73b	-0.20199291
74	0x3e61db46	0.22056302
75	0x3e51265b	0.20424788
76	0x3eaf8d42	0.3428746
77	0xbdc18875	-0.09449855
78	0x3e2a9cc6	0.16661367
79	0x3c41e4d6	0.011834344
80	0x3d0d9a4b	0.034570973
81	0xbdd40546	-0.10352568
82	0x3e918577	0.28422138
83	0x3efb84b0	0.4912467
84	0x3d0a8220	0.033815503
85	0xbd9fe7e0	-0.078078985
86	0x3da366f3	0.079786204
87	0x3dcdeb16	0.10054605
88	0xbe82fca1	-0.25583366
89	0x3ea6f5cb	0.326094
90	0xbdce3ce8	-0.10070211
91	0xbe985d6f	-0.29758784
92	0xbea29843	-0.3175679
93	0x3eae1ef2	0.34007984
94	0x3d7a0637	0.061041083
95	0xbded53d1	-0.11588252
96	0x3e778cfc	0.24174875
97	0xbe25090e	-0.16116735
98	0xbdd9a796	-0.106276676
99	0xbd40f94b	-0.047112744

fc2.weight f4 [50, 100]
0	0xbd14cb4f	-0.036326703
1	0x3d95c07a	0.073121026
2	0x3d96885e	0.07350229
3	0xbd74a471	-0.059727136
4	0x3d20f720	0.039298177
5	0x3c8d8e4e	0.01727977
6	0x3d9998b1	0.07499827
7	0xbd1d9fa7	-0.038482334
8	0x3d512f0d	0.05107026
9	0xbcf6c9b7	-0.030125482
10	0xbd1de7bd	-0.03855108
11	0x3df55b35	0.11980287
12	0x3dc68338	0.09692997
13	0xbc70175e	-0.014654009
14	0xbd85b655	-0.06528918
15	0x3da0fb53	0.07860436
16	0x3d064323	0.03277887
17	0x3d24d975	0.040246446
18	0xbd575ffb	-0.05258177
19	0x3e1ba1f7	0.15198503
20	0xbe050e1c	-0.12993664
21	0x3da99d6f	0.08281981
22	0x3e546a29	0.20743622
23	0x3c919ae4	0.017774053
24	0x3bdc6933	0.006726408
25	0xbdeb26f9	-0.11482043
26	0xbd012ca0	-0.0315367
27	0xbdb5a47f	-0.08869266
28	0x3c97ec1b	0.018545201
29	0xbda0972d	-0.078413345
30	0x3d98aa58	0.074543655
31	0x3c92e2ef	0.017930476
32	0xbd6e7b98	-0.058223337
33	0x3dc7ff1e	0.097654566
34	0xbc0beea8	-0.008540787
35	0xbe182b90	-0.14860368
36	0xbdf32aae	-0.11873375
37	0x3dda3e4f	0.10656416
38	0x3d8972e3	0.06711366
39	0x3d909449	0.07059533
40	0x3bf558ad	0.0074873776
41	0xbec8e3c0	-0.3923626
42	0x3d6d0bba	0.05787251
43	0xbdc3bb5a	-0.09557219
44	0xbe896194	-0.2683226
45	0xbd9c7f1b	-0.07641431
46	0xbbf43ccd	-0.007453537
47	0x3b9ce580	0.0047881007
48	0xbdc7c3b3	-0.097541235
49	0x3d5163e7	0.051120665
50	0xbe251bed	-0.16123934
51	0xba4d7400	-0.0007837415
52	0xbc828644	-0.015933163
53	0x3d9af2e2	0.075658575
54	0x3c761ca3	0.015021476
55	0xbd3b3874	-0.045708135
56	0x3dbfed84	0.093714744
57	0x3d2abd83	0.04168464
58	0xbc7ef29a	-0.01556077
59	0x3d829ba3	0.063773416
60	0x3b76a833	0.0037636876
61	0x3d70b847	0.05876949
62	0xbdbe1e83	-0.092831634
63	0xbd7337b0	-0.05937928
64	0x3e05b144	0.13055903
65	0xbd717893	-0.05895288
66	0xbdc6a1b4	-0.09698811
67	0xbdb657d6	-0.08903472
68	0xbde46d0a	-0.1115361
69	0x3c563927	0.01307515
70	0x3d83a29b	0.06427499
71	0xbcb1df27	-0.021712853
72	0x3e073bef	0.13206457
73	0x3d069c03	0.032863628
74	0xbdc061c5	-0.09393648
75	0x3dc75d28	0.09734565
76	0xbdb8e1d7	-0.090274505
77	0x3dd6bdbe	0.10485409
78	0xbd2cfc50	-0.04223281
79	0xbd5343f0	-0.051578462
80	0xbd442a90	-0.047892153
81	0x3cfda607	0.030962957
82	0x3c28ddb3	0.010306763
83	0xbdf41e84	-0.11919883
84	0x3dc8e550	0.09809363
85	0xbd5a4347	-0.053286817
86	0x3d5bd675	0.05367132
87	0x3d8e434b	0.06946429
88	0x3c358a0a	0.011080274
89	0xbd697f21	-0.057006005
90	0xbb24e9b7	-0.002516372
91	0x3d5f3623	0.05449499
92	0x3d2b5de7	0.0418376
93	0xbd8baa54	-0.06819597
94	0xbd5b3ea4	-0.053526536
95	0x3d9b8b80	0.07594967
96	0xbc4929f3	-0.012278068
97	0xbcab9640	-0.020945668
98	0xbc6bce73	-0.014392483
99	0xbb48c500	-0.0030635
100	0xbdb47ada	-0.088124946
101	0xbdaf50eb	-0.08560356
102	0x3c357273	0.01107465
103	0x3d184cfd	0.037182797
104	0x3d18ef1a	0.0373374
105	0x3ce371b3	0.027764177
106	0x3d896c63	0.06710126
107	0xbca79bd3	-0.020460045
108	0x3da145e7	0.07874661
109	0xbd9197a8	-0.07109004
110	0x3d4a4257	0.049379673
111	0x3d88baa3	0.06676223
112	0x3d880048	0.06640679
113	0xbd2ac55d	-0.041692127
114	0xbd77553d	-0.060384024
115	0xbdb7845f	-0.08960795
116	0x3d9cf318	0.07663554
117	0x3cf5836d	0.029969895
118	0x3d9214cb	0.07132872
119	0x3cb096ba	0.021556247
120	0x3db336da	0.087506965
121	0xbd549b37	-0.051905837
122	0xbcf4e6cd	-0.02989521
123	0xbd8a22c5	-0.06744913
124	0x3d23884a	0.039924897
125	0xbd80273d	-0.06257484
126	0xbdcc395a	-0.099718764
127	0xbbc63ae7	-0.006049502
128	0xbda62735	-0.08112947
129	0xbd85f005	-0.06539921
130	0x3d9e1537	0.0771889
131	0x3dc2dbab	0.095145546
132	0xbd7902ea	-0.060793795
133	0xbd4b2120	-0.049592137
134	0xbd823c7d	-0.063591935
135	0x3da700dd	0.081544615
136	0x3db54f92	0.088530675
137	0x3d54ad37	0.051923003
138	0x3d0afa03	0.033929836
139	0x3d1e9b70	0.038722456
140	0xbdbcac4b	-0.0921255
141	0x3d9101d5	0.070804276
142	0xbd26d6e0	-0.040732265
143	0xbcd26b07	-0.0256858
144	0xbc868d80	-0.016424894
145	0x3d7bf837	0.061516013
146	0xbd30811a	-0.04309187
147	0x3d852bd8	0.06502503
148	0xbbc344b3	-0.0059591173
149	0xbd463d4a	-0.048398294
150	0xbd08750d	-0.033314753
151	0xbd867d3a	-0.06566854
152	0xbcec9b4d	-0.028882647
153	0xbda9a680	-0.082837105
154	0x3db831e3	0.0899389
155	0xbcef77d3	-0.029231941
156	0xbd248e23	-0.040174615
157	0xbd661143	-0.056168806
158	0xbb0c8a67	-0.00214448
159	0xbbbb164d	-0.0057094456
160	0xbd006ab3	-0.031351756
161	0xbd678987	-0.05652764
162	0x3db53ce2	0.08849503
163	0x3ce30560	0.027712524
164	0x3d94bfad	0.07263122
165	0x3daee558	0.085398376
166	0xbd6cc4c7	-0.05780485
167	0xbd8485ea	-0.064708546
168	0x3d221f8a	0.03958086
169	0x3c05ca40	0.008165896
170	0xbc71d0e7	-0.014759279
171	0xbd6696b0	-0.05629605
172	0xbda2e0e8	-0.07953054
173	0xbd931d68	-0.07183343
174	0xbd679dbd	-0.056546915
175	0xbd4d7ced	-0.050167967
176	0x3d049ab3	0.032374095
177	0xbce64013	-0.028106725
178	0xbda2bd47	-0.07946258
179	0xbc85beed	-0.016326392
180	0xbb8d3f9a	-0.0043105604
181	0xbd8da44f	-0.06916105
182	0xbc7bafe7	-0.015361763
183	0x3d11acf7	0.035565343
184	0x3c8d68ba	0.017261852
185	0xbd20dc10	-0.039272368
186	0xbc85dfe7	-0.016342117
187	0x3d78ab90	0.06071049
188	0xbd076e1d	-0.033063997
189	0x3d89716d	0.067110874
190	0xbcb40c87	-0.02197863
191	0xbcd445ed	-0.02591225
192	0x3da9ac88	0.08284861
193	0x3db4c70f	0.0882703
194	0xbca372fa	-0.019952286
195	0xbcf195fa	-0.02949046
196	0x3d2ab390	0.04167515
197	0xbc5e231a	-0.013558174
198	0x3da17475	0.078835405
199	0xbd1888da	-0.037239887
200	0x3d22889a	0.039681055
201	0x3caf274d	0.021381045
202	0xbc201773	-0.009771216
203	0x3daee5ca	0.085399225
204	0x3d109f07	0.03530791
205	0xbc75da73	-0.015005696
206	0xbdbced3f	-0.092249386
207	0xbc8f1173	-0.017464375
208	0xbd77ea00	-0.060525894
209	0xbc63754d	-0.013882947
210	0xbceeb547	-0.029139174
211	0x3d60639a	0.054782487
212	0x3d97238a	0.073798254
213	0xbd546e00	-0.051862717
214	0xbd13b330	-0.03605956
215	0x3c61cecd	0.013782215
216	0x3d34e337	0.044162
217	0xbd77f91a	-0.060540296
218	0x3bb622e7	0.00555836
219	0x3cbe5b47	0.023236884
220	0x3d848d93	0.06472316
221	0xbda5e46b	-0.08100208
222	0x3d7ee7a7	0.06223264
223	0x3a17b400	0.0005787015
224	0x3d7b3c4d	0.061336804
225	0x3d74ac53	0.059734654
226	0x3d409a03	0.047021877
227	0xbd49cda3	-0.049268376
228	0x3c9fd313	0.019509828
229	0xbd98ec1d	-0.0746691
230	0xbd16917a	-0.03675983
231	0x3d1db550	0.03850299
232	0xbcbb1920	-0.022839129
233	0xbdb11438	-0.086464345
234	0x3d1a2120	0.037629247
235	0xbd9670c8	-0.0734573
236	0xbd01405d	-0.031555522
237	0x3d836760	0.064162016
238	0x3db4750a	0.08811386
239	0x3d6b4e13	0.057447504
240	0x3cf76fad	0.030204618
241	0xbd1676c3	-0.036734354
242	0xbda8a855	-0.08235232
243	0xbc8210da	-0.015877176
244	0xbd722163	-0.05911387
245	0x3d9764f0	0.07392299
246	0xbdacf85f	-0.084458105
247	0xbd95a688	-0.07307154
248	0x3da66e9a	0.08126564
249	0x3c58ab0d	0.013224375
250	0x3c7b41f3	0.015335548
251	0xbd9bc65f	-0.07606196
252	0xbcb588cd	-0.022159958
253	0xbd897312	-0.06711401
254	0x3d85bda7	0.06530314
255	0xbdc7d963	-0.0975826

fc2.bias f4 [50]
0	0x3d65ccd1	0.05610353
1	0x3d69f2d7	0.057116356
2	0x3d27b287	0.04094174
3	0xbd6780a3	-0.056519162
4	0x3dadbc03	0.08483126
5	0xbdbfb498	-0.093606174
6	0xbd094e5d	-0.033522
7	0xbdb5875e	-0.0886371
8	0xbdd871c8	-0.10568577
9	0xbd7c008b	-0.061523955
10	0x3d9c8d92	0.0764419
11	0xbcb1d774	-0.021709181
12	0x3d3dca88	0.046335727
13	0x3db37b36	0.08763735
14	0x3b46eb88	0.003035279
15	0xbd1fb237	-0.03898832
16	0x3cc7ebcd	0.02440443
17	0x3d1fae8d	0.038984824
18	0x3c50bfa4	0.012741003
19	0xbd910783	-0.07081511
20	0x3d4664fe	0.048436157
21	0x3d31f2f3	0.043444585
22	0x3d9498fe	0.072557434
23	0x3d85c517	0.065317325
24	0xbd3b1177	-0.045670953
25	0x3cc0861a	0.023501445
26	0x3da1dbc9	0.07903249
27	0xbb91ca00	-0.004449129
28	0xbca1b187	-0.019737972
29	0xbe09ece9	-0.1346928
30	0x3d412ff0	0.047164857
31	0xbd1cf5e2	-0.03832043
32	0xbdbe30f9	-0.092866845
33	0xbccb0a9b	-0.02478533
34	0xbd0bc342	-0.03412176
35	0x3d9da8ef	0.07698237
36	0xbd3b1c5d	-0.045681346
37	0x3c2b8e80	0.010470986
38	0x3dcc587f	0.09977817
39	0xbd00601c	-0.031341657
40	0x3c8a80f3	0.01690719
41	0x3cef7887	0.029232277
42	0x3e013679	0.12618436
43	0xbd521014	-0.051284865
44	0xbdb0bd5f	-0.0862987
45	0xbdb5bbc6	-0.088737056
46	0x3d897013	0.067108296
47	0xbc25dc78	-0.010123365
48	0xbd6bdaf7	-0.057581868
49	0xbc13cf27	-0.009021557

fc3.weight f4 [30, 50]
0	0xbdafb96e	-0.0858029
1	0x3d939a6b	0.07207187
2	0xbdb1e871	-0.08686913
3	0xbd7a5d3d	-0.061124075
4	0x3d71a8cf	0.05899888
5	0xbdcbaedc	-0.09945461
6	0xbde0de7c	-0.109799355
7	0xbdbad6a6	-0.09122972
8	0xbdb7a8d9	-0.08967752
9	0xbd947119	-0.07248134
10	0xbcd7e8c6	-0.026356112
11	0xbcb8198e	-0.022473123
12	0xbde13597	-0.109965496
13	0xbdd379ff	-0.10326003
14	0xbde6a9ef	-0.11262881
15	0x3dc5fd4d	0.09667454
16	0x3e06a0dd	0.13147302
17	0x3db53923	0.088487886
18	0x3dab6c59	0.08370275
19	0xbdc8d265	-0.098057546
20	0xbd8f60d2	-0.07000889
21	0x3c5714ec	0.013127547
22	0x3db64025	0.08898953
23	0xbdeafa46	-0.11473517
24	0xbdf88988	-0.12135607
25	0x3d8d2e28	0.06893569
26	0xbdb3c74b	-0.087782465
27	0xbcafa629	-0.021441536
28	0x3da478ba	0.08030839
29	0xbcf89a0e	-0.030346896
30	0xbcc19b73	-0.023633694
31	0x3db49aba	0.08818574
32	0xbd695e89	-0.05697492
33	0xbe0f58da	-0.13998738
34	0x3c270751	0.010194615
35	0x3daa6f66	0.08322029
36	0x3d04fa11	0.032465044
37	0x3e08a517	0.13344227
38	0xbd863bb4	-0.06554356
39	0xbd037d77	-0.032102074
40	0xbd6e5d17	-0.058194246
41	0xbd962e51	-0.07333053
42	0xbd9cdfe2	-0.0765989
43	0xbdb5a9e5	-0.088702954
44	0x3d8eec59	0.069786735
45	0x3cae1f33	0.021255111
46	0xbdde9f36	-0.10870211
47	0x3dcf0fc4	0.10110429
48	0x3dd78ecb	0.105252825
49	0xbd47bebf	-0.048765894
50	0x3d96d7f8	0.073654115
51	0x3d437b46	0.047724985
52	0xbce4bcf7	-0.027922137
53	0xbcb01a61	-0.021496953
54	0xbd3fc43b	-0.046818
55	0x3d864ff2	0.06558217
56	0x3d9754c8	0.073892176
57	0xbca74486	-0.020418417
58	0xbdb8e045	-0.09027151
59	0xbd982493	-0.07428851
60	0xbb3e0302	-0.0028993492
61	0x3e607d3a	0.2192277
62	0xbe35190c	-0.17685336
63	0x3da2169d	0.079144694
64	0xbdccc38d	-0.09998236
65	0xbd94a1f0	-0.072574496
66	0x3d4a33ea	0.049365915
67	0xbdf218af	-0.11821114
68	0xbe1af953	-0.15134172
69	0xbdfbaede	-0.12289213
70	0x3ca0bcc3	0.019621259
71	0xbd5ad117	-0.05342206
72	0xbb20b20e	-0.0024520191
73	0xbcaf0f7a	-0.021369684
74	0xbd44d942	-0.048058756
75	0xbdfdb587	-0.12388139
76	0xbe305839	-0.17221154
77	0x3decd021	0.11563135
78	0x3ca246db	0.019809177
79	0x3e22a48f	0.15883087
80	0x3c9911ec	0.018685304
81	0x3e537e04	0.2065354
82	0x3ca5855f	0.020205198
83	0x3d588abc	0.052866682
84	0xbe53ef05	-0.20696647
85	0x3d568c42	0.052379854
86	0x3e225c2e	0.15855476
87	0xbdcf8186	-0.101321265
88	0xbd77a134	-0.06045647
89	0x3e0df874	0.13864309
90	0xbdedfd77	-0.1162061
91	0x3cec21db	0.028824737
92	0xbe20cc87	-0.15703021
93	0x3e6b76c6	0.22994527
94	0xbcf12c89	-0.029440181
95	0x3df4d3b5	0.119544424
96	0x3d813643	0.06309178
97	0x3dca7e7c	0.09887406
98	0xbab14b35	-0.0013526442
99	0xbe0c7479	-0.13716306
100	0xbe1c88ac	-0.15286511
101	0x3cfe37d0	0.031032473
102	0xbd8fa1e2	-0.070132986
103	0xbdc9ea45	-0.098591365
104	0xbc873350	-0.01650396
105	0xbdaeaab5	-0.085286535
106	0xbdda226d	-0.106510974
107	0xbdade393	-0.08490672
108	0x3dec8226	0.11548261
109	0x3cebfb00	0.02880621
110	0x3dd9c1c1	0.10632659
111	0xbdcf2ef9	-0.10116381
112	0x3c6c579e	0.014425186
113	0x3d811176	0.063021585
114	0x3da78f28	0.08181602
115	0x3d66e455	0.0563701
116	0xbd80a14f	-0.06280767
117	0x3e61f3d1	0.22065665
118	0xbd78675d	-0.06064545
119	0x3d896df5	0.06710426
120	0x3dfe2224	0.124088556
121	0xbd7ecf8f	-0.062209662
122	0x3d829cbb	0.0637755
123	0xbe013a97	-0.12620007
124	0xbd98bf71	-0.074583896
125	0x3b1e112d	0.0024119124
126	0xbd371be3	-0.04470433
127	0xbddfea1c	-0.10933325
128	0xbe143fab	-0.14477412
129	0xbe1bea57	-0.15226112
130	0x3e1ff984	0.15622526
131	0xbe45bb46	-0.1930972
132	0x3e1e1c5c	0.15440506
133	0xbbf6ea86	-0.0075352816
134	0x3d64a857	0.055824604
135	0xbd19e8d3	-0.037575554
136	0xbd290557	-0.041264858
137	0xbd92390d	-0.07139788
138	0x3cac5ec1	0.021041276
139	0xbda827b6	-0.08210699
140	0xbdfa172a	-0.122114494
141	0xbad9f7c7	-0.001662963
142	0x3dcc43d1	0.099738725
143	0xbd834c66	-0.06411056
144	0xbd41f4b0	-0.047352493
145	0xbb8201dd	-0.0039675073
146	0xbd6cb6e5	-0.05779161
147	0x3e1a877c	0.15090746
148	0xbd57297b	-0.052529793
149	0x3daa59f7	0.08317941
150	0xbe5309ae	-0.20609161
151	0xbd9bccd6	-0.07607429
152	0x3d8291a3	0.06375434
153	0x3e08a12a	0.13342729
154	0x3d2db128	0.042405277
155	0xbc8eb799	-0.01742153
156	0x3d6f7a44	0.05846621
157	0x3d05817d	0.032594193
158	0x3dee9e9e	0.116513476
159	0xbe11d65d	-0.1424193
160	0x3dc04501	0.093881615
161	0xbe2db51c	-0.16963619
162	0x3db19029	0.086700745
163	0x3dabe212	0.08392729
164	0x3df5dbe6	0.12004833
165	0x3c9e576e	0.0193288
166	0xbd86d7b5	-0.065841116
167	0x3dc1942f	0.09452092
168	0x3995c694	0.00028567447
169	0x3afdc747	0.0019361757
170	0xbe0106ca	-0.12600246
171	0xbca8386e	-0.02053472
172	0x3d4af165	0.049546618
173	0xbd90a427	-0.070625596
174	0x3d65bb4b	0.05608682
175	0xbde0e880	-0.10981846
176	0x3dd76b4f	0.10518514
177	0x3d8142e7	0.06311589
178	0xbe25aef3	-0.16180019
179	0xbb217cae	-0.0024640965
180	0x3dd05494	0.10172382
181	0xbd2e972a	-0.04262463
182	0x3e515c89	0.20445456
183	0xbcd6c1f0	-0.026215523
184	0x3dba85b2	0.091075316
185	0xbd7a5cfe	-0.06112384
186	0xbd924dc4	-0.07143739
187	0x3df05530	0.11734998
188	0x3db5bab2	0.088735
189	0xbe8e5f65	-0.27807155
190	0xbd75922a	-0.059953846
191	0x3d5054ea	0.05086223
192	0x3d25ddcb	0.04049472
193	0xbda16fea	-0.07882674
194	0x3d8e8aa5	0.06960038
195	0xbe1f7f51	-0.15575911
196	0x3e004291	0.12525393
197	0x3e1934e7	0.14961587
198	0x3d7730c6	0.06034925
199	0xbe0455a6	-0.12923297
200	0xbe567d78	-0.209463
201	0x3da612e9	0.081090756
202	0xbd26fe36	-0.04076978
203	0x3dc03ea2	0.09386946
204	0x3dcbab37	0.09944766
205	0xbc127d1e	-0.008940963
206	0x3cd43987	0.025906337
207	0xbe05b168	-0.13055956
208	0x3d890da8	0.06692058
209	0x3d762400	0.060092926
210	0x3de17d63	0.11010244
211	0x3c954691	0.018222125
212	0xbdade272	-0.08490457
213	0xbd91dd6f	-0.07122313
214	0x3db720a4	0.089417726
215	0x3d0eb54b	0.034840863
216	0x3dff6c3a	0.124718145
217	0xbcb795c6	-0.022410285
218	0x3e326166	0.17419967
219	0xbd8cd55a	-0.06876631
220	0x3d803297	0.06259649
221	0x3cd9feec	0.026610814
222	0x3d01df77	0.031707253
223	0xbc09e588	-0.008416541
224	0xbdc966bf	-0.098340504
225	0x3d41eda7	0.047345784
226	0xbbfc2ab0	-0.0076955184
227	0x3d0d7cb7	0.034542765
228	0xbc1e74ef	-0.009671434
229	0xbdb57ad5	-0.08861319
230	0xbc4d8de4	-0.012546036
231	0xbd4d0168	-0.05005017
232	0xbd5439ac	-0.051812813
233	0xbd163bb7	-0.036678042
234	0x3ce2411f	0.027618943
235	0x3d62b7f7	0.055351224
236	0xbd731e8c	-0.059355304
237	0xbc83664f	-0.016039995
238	0x3ddd407e	0.108033165
239	0xbe7b108f	-0.24518035
240	0x3d1b81be	0.03796553
241	0x3da7dabd	0.08196018
242	0x3e3becdb	0.18352072
243	0xbdd6445f	-0.104622595
244	0x3ab0fae1	0.0013502502
245	0xbc48b972	-0.012251245
246	0x3e0fa661	0.14028312
247	0x3dfa4400	0.12220001
248	0x3df41a58	0.11919087
249	0xbe0790ff	-0.13238905
250	0xbe88a13f	-0.2668552
251	0x3e0f1b41	0.1397524
252	0x3dbc572a	0.09196313
253	0x3df234ba	0.11826463
254	0xbdb93457	-0.09043186
255	0xbd9307e0	-0.071792364

fc3.bias f4 [30]
0	0xbd8b24a1	-0.06794096
1	0xbdc8e58c	-0.098094076
2	0x3e0156de	0.12630793
3	0xbe2071a0	-0.15668344
4	0x3dc0c149	0.09411866
5	0x3e925cbe	0.28586382
6	0x3d9a056b	0.07520565
7	0x3ecb3549	0.3968909
8	0xbd18fdfc	-0.037351593
9	0xbcb4ce6b	-0.022071084
10	0xbbcb37f7	-0.00620174
11	0xbdd7fae4	-0.105459005
12	0x3e0430ce	0.12909243
13	0xbb191615	-0.002335911
14	0xbc22c1a0	-0.009933859
15	0x3d1b7d13	0.037961077
16	0xbe13d9ae	-0.14438507
17	0xbdd2f809	-0.10301215
18	0x3cc5c7e4	0.024143167
19	0xbe0d9283	-0.13825421
20	0x3ceea2f1	0.02913043
21	0xbd0f4b2e	-0.034983806
22	0xbdf8f557	-0.1215617
23	0x3e06389f	0.13107537
24	0x3d7c1823	0.061546456
25	0x3e027585	0.12740143
26	0x3e2ec625	0.17067774
27	0xbdfb8d74	-0.122828394
28	0x3c10320e	0.0088009965
29	0xbb26fe23	-0.0025481067

out.weight f4 [2, 30]
0	0xbe1adb40	-0.151227
1	0xbde39dcd	-0.111140825
2	0x3bb493f4	0.0055108014
3	0x3e556286	0.20838365
4	0x3dc380c1	0.09546042
5	0x3fc43833	1.5329651
6	0x3e105dc2	0.14098266
7	0xbf8a3166	-1.0796325
8	0xbe56c285	-0.20972641
9	0xbd1b70ab	-0.037949245
10	0xbe21b37e	-0.15791127
11	0x3d261253	0.04054482
12	0x3dc172ca	0.094457224
13	0xbe7f4714	-0.24929458
14	0x3e3dafc5	0.18524082
15	0x3d7a81c1	0.0611589
16	0x3e32dd37	0.174672
17	0x3c0f6efe	0.00875449
18	0xbe452a83	-0.19254498
19	0x3c90ba02	0.01766682
20	0x3e4f8cab	0.20268504
21	0x3deccfb6	0.11563055
22	0xbe206848	-0.1566478
23	0x3d0783f3	0.03308482
24	0x3e2a9fef	0.16662572
25	0xbcb96384	-0.02263046
26	0x3d1354db	0.035969596
27	0xbe1840f1	-0.14868523
28	0x3e4b0f44	0.19830042
29	0x3e85a2b6	0.261007
30	0xbc46db58	-0.012137257
31	0x3de2157c	0.11039254
32	0xbe7e4fce	-0.2483513
33	0xbd3a1dc3	-0.04543854
34	0x3c33aecc	0.010966968
35	0xbfa1ded8	-1.2646132
36	0xbd86d0f0	-0.065828204
37	0x3f84afc7	1.0366143
38	0x3e804ad0	0.25057077
39	0xbe5bd5dc	-0.214683
40	0x3b4f2f66	0.0031613945
41	0x3cb35a16	0.021893542
42	0x3cdaec4b	0.026724001
43	0x3d9f0aa3	0.07765701
44	0xbe358e60	-0.17730093
45	0x3e00f3d3	0.12593012
46	0xbe17b36b	-0.14814536
47	0xbcf21a2e	-0.0295535
48	0x3e38fb64	0.18064648
49	0x3bc484ae	0.005997262
50	0xbdacbcb8	-0.08434433
51	0x3e2d9503	0.16951375
52	0xbd9df961	-0.07713581
53	0x3e1fb076	0.15594658
54	0x3e02568d	0.12728329
55	0x3e1c5ff2	0.15270975
56	0x3e732eec	0.23748368
57	0xbd85f0b9	-0.06540055
58	0xbde9a72a	-0.11408837
59	0xbcd743d0	-0.026277453

out.bias f4 [2]
0	0x3df9c3d1	0.12195552
1	0x3c015a9e	0.00789514
